lakebot_stan_net.pth (torch, 5205 bytes, 9 tensors)

adapter.linear.weight f4 [4, 18]
-0.13814378 0.064855926 -0.17359711 -0.09983846 0.21881045 -0.11413367 -0.14888604 -0.13273002
-0.025797058 0.11917417 0.010021182 0.08484757 0.14610128 0.23142384 -0.16425796 0.11313231
-0.03985785 0.20536517 -0.25987548 0.13894168 0.15077586 -0.012283735 0.15808584 -0.15660618
-0.026507149 0.0972841 -0.27889702 -0.18955776 -0.18618953 -0.21803609 0.07206812 -0.1945759
0.13057166 -0.07638755 -0.05176105 -0.14800403 -0.05990311 -0.007230727 -0.106834985 -0.22908515
-0.16764802 -0.057796646 -0.108905464 0.020820728 0.082918376 0.10796343 0.06165636 0.06286761
0.109456986 -0.120957874 0.117851466 0.1449621 -0.16581887 0.033496454 0.01410741 -0.25664812
0.15354049 -0.15973897 -0.177904 0.1687784 0.095634215 -0.00014124042 -0.24537557 0.098235585
0.17012207 -0.15345709 -0.017101046 0.12376701 -0.10611941 0.049718827 -0.2265412 -0.12553178
00000000: 9075 0dbe 2fd3 843d 71c3 31be 1b78 ccbd
00000010: d90f 603e eabe e9bd 9575 18be 61ea 07be
00000020: 5a54 d3bc 9611 f43d e22f 243c 90c4 ad3d
00000030: 939b 153e 5ffa 6c3e 3d33 28be eab1 e73d
00000040: fc41 23bd 3f4b 523e 660e 85be ba46 0e3e
00000050: fd64 1a3e b841 49bc 41e1 213e 5f5d 20be
00000060: 8525 d9bc e33c c73d 97cb 8ebe 6e1b 42be
00000070: 78a8 3ebe da44 5fbe 7398 933d e83e 47be
00000080: 94b4 053e 1371 9cbd 6503 54bd 5e8e 17be
00000090: f75c 75bd bcef ecbb 4dcc dabd 4c95 6abe
000000a0: ecab 2bbe 2dbc 6cbd d409 dfbd 3b90 aa3c
000000b0: 1cd1 a93d ee1b dd3d 618b 7c3d bcc0 803d
000000c0: fc2a e03d c3b8 f7bd 1c5c f13d f270 143e
000000d0: 6ccc 29be 9433 093d c422 673c 6267 83be
000000e0: b839 1d3e 9d92 23be 772c 36be 3fd4 2c3e
000000f0: dfdb c33d f019 14b9 bc43 7bbe bd2f c93d
00000100: 7b34 2e3e db23 1dbe 7e17 8cbc 8f79 fd3d
00000110: 2255 d9bd f8a5 4b3d 6bfa 67be 678b 00be

adapter.linear.bias f4 [4]
-0.05116594 0.036703274 -0.03354477 -0.20917946
00000000: 6093 51bd 2c56 163d 3e66 09bd 2433 56be

sam.conv.weight f4 [1, 4, 1, 1]
0.1818352 -0.4779742 0.13271824 0.11171656
00000000: 0233 3a3e 09b9 f4be 4ae7 073e a7cb e43d

tau.gru.weight_ih_l0 f4 [12, 4]
-0.377543 -0.087878756 0.10485492 -0.10885029 -0.08644232 0.44359332 0.16453783 0.39749143
0.08846435 -0.42718816 0.057894103 0.18990576 0.3935053 0.15983589 -0.0018713459 -0.15032691
-0.01453342 -0.08896665 0.28678963 -0.030279815 -0.3563833 0.14073274 0.105667464 0.33131656
0.15858759 0.4970224 0.28848276 -0.34129414 0.38835898 -0.41984418 0.5357058 0.17931317
0.10219968 -0.29029498 -0.27045414 -0.35785306 0.52557635 -0.01986283 0.22291087 0.32650095
-0.20368524 -0.4247657 -0.25218675 -0.42084554 -0.42607278 0.074026525 0.06808016 0.31246173
00000000: 514d c1be c7f9 b3bd 2dbe d63d e7ec debd
00000010: ac08 b1bd aa1e e33e 9b7c 283e ff83 cb3e
00000020: cc2c b53d 68b8 dabe 5e22 6d3d a876 423e
00000030: 8779 c93e 05ac 233e f347 f5ba 4cef 19be
00000040: 951d 6ebc 2634 b6bd 17d6 923e 600d f8bc
00000050: df77 b6be 3e1c 103e 2f68 d83d 53a2 a93e
00000060: c964 223e b879 fe3e 03b4 933e 1bbe aebe
00000070: fdd6 c63e d1f5 d6be 0424 093f df9d 373e
00000080: 114e d13d 8ba1 94be f778 8abe 8438 b7be
00000090: 2c8c 063f 60b7 a2bc bf42 643e 222b a73e
000000a0: dd92 50be e47a d9be 9f1e 81be 1179 d7be
000000b0: 3626 dabe 389b 973d 9c6d 8b3d fcfa 9f3e

tau.gru.weight_hh_l0 f4 [12, 4]
-0.3670924 -0.27936238 0.0028276993 -0.27305403 0.39696613 0.31398243 0.015101206 0.17755699
0.20995167 0.5229897 0.13530321 -0.31021592 -0.15587969 -0.23863614 -0.029308202 0.28455377
0.37226263 0.20414168 0.2290722 -0.028203772 0.40870264 0.2734612 0.06071441 0.32029608
-0.3129419 0.33451605 -0.3016275 -0.4976047 0.21115181 0.16599457 0.07499372 -0.49017295
0.359751 0.14836968 0.05038971 0.10371018 -0.25094533 0.2832101 -0.045320824 0.24696909
0.33913735 0.2204326 -0.28258482 0.32129905 -0.30517483 -0.020165367 -0.36938006 -0.0002921893
00000000: 89f3 bbbe 9608 8fbe ec50 393b bdcd 8bbe
00000010: 253f cb3e 4ec2 a03e 0c6b 773c 80d1 353e
00000020: 92fd 563e a7e2 053f ed8c 0a3e 9fd4 9ebe
00000030: ed9e 1fbe 085d 74be c117 f0bc 08b1 913e
00000040: 3599 be3e 840a 513e e791 6a3e 990b e7bc
00000050: 7941 d13e 1b03 8c3e acaf 783d d9fd a33e
00000060: ec39 a0be b045 ab3e eb6e 9abe 0bc6 febe
00000070: 2e38 583e 7bfa 293e 4f96 993d f3f7 fabe
00000080: 4831 b83e 39ee 173e 7165 4e3d 0166 d43d
00000090: e87b 80be ea00 913e 54a2 39bd 77e5 7c3e
000000a0: 69a3 ad3e 15b9 613e f5ae 90be 4f81 a43e
000000b0: e03f 9cbe d731 a5bc 621f bdbe fc30 99b9

tau.gru.bias_ih_l0 f4 [12]
-0.29563415 0.10913934 -0.35393405 0.26697722 0.015293086 -0.41638815 0.21290539 -0.40152267
0.44681934 0.06723256 0.3387628 -0.22025473
00000000: 5c5d 97be 7284 df3d d836 b5be 3db1 883e
00000010: da8f 7a3c d430 d5be df03 5a3e 6194 cdbe
00000020: 81c5 e43e 39b1 893d 5172 ad3e 758a 61be

tau.gru.bias_hh_l0 f4 [12]
0.065005854 0.06349488 -0.20995693 -0.1585392 -0.10641274 0.08695828 0.18573211 0.39282224
0.09287842 -0.40242508 -0.28680453 0.27269757
00000000: ca21 853d 9b09 823d f3fe 56be 1a58 22be
00000010: ecee d9bd 2f17 b23d 8f30 3e3e ff1f c93e
00000020: 0b37 be3d a90a cebe 0bd8 92be 049f 8b3e

dal.conv.weight f4 [10, 4, 1, 1]
0.3424372 -0.021161402 0.14464404 -0.41731504 -0.3497995 -0.45349473 0.51478505 0.42518765
-0.26393738 -0.1087689 0.18454435 0.100304246 0.09825107 0.006013645 -0.32291964 -0.28159535
0.12663855 -0.06931767 -0.08879111 -0.18607156 0.45136508 -0.04429087 0.53951806 -0.13918602
0.01989401 -0.54718316 0.5437722 0.32382092 0.34890085 -0.51843303 -0.32248443 -0.14930768
-0.18350737 0.30396935 -0.15399526 0.08608942 0.23557633 0.10252705 -0.028912859 -0.42291522
00000000: ee53 af3e ad5a adbc 911d 143e 51aa d5be
00000010: ec18 b3be 7630 e8be f4c8 033f 32b2 d93e
00000020: cd22 87be 3bc2 debd 32f9 3c3e 506c cd3d
00000030: db37 c93d 1c0e c53b b955 a5be 442d 90be
00000040: 89ad 013e 6cf6 8dbd 1dd8 b5bd 8b89 3ebe
00000050: 5319 e73e 586a 35bd db1d 0a3f c886 0ebe
00000060: c3f8 a23c 3214 0cbf a834 0b3f dbcb a53e
00000070: 22a3 b23e 07b8 04bf ae1c a5be 1de4 18be
00000080: 5be9 3bbe dfa1 9b3e efb0 1dbe a64f b03d
00000090: ec3a 713e b4f9 d13d a9da ecbc 5888 d8be

dal.conv.bias f4 [10]
0.4900192 -0.026137644 0.41137564 0.14009577 0.43605125 0.003018083 -0.15745582 -0.37203753
0.18738964 -0.015837433
00000000: cce3 fa3e 9d1e d6bc d49f d23e 4475 0f3e
00000010: 1c42 df3e 08cb 453b 193c 21be b47b bebe
00000020: 12e3 3f3e 81bd 81bc
